…
c. Then fit the model using the training images and labels. . tx_model.compile(optimizer=&#39;SGD&#39;, loss=&#39;sparse_categorical_crossentropy&#39;, metrics = [&#39;accuracy&#39;]) tx_model.summary() history = tx_model.fit(train_img, train_lbl, batch_size=256, epochs = NUM_EPOCHS, validation_data = (test_img, test_lbl), verbose = 1) . Model: &#34;model&#34; _________________________________________________________________ Layer (type) Output Shape Param # ================================================================= input_2 (InputLayer) [(None, 32, 32, 3)] 0 up_sampling2d (UpSampling2D (None, 224, 224, 3) 0 ) resnet50 (Functional) (None, 7, 7, 2048) 23587712 global_average_pooling2d (G (None, 2048) 0 lobalAveragePooling2D) dense (Dense) (None, 1024) 2098176 dropout (Dropout) (None, 1024) 0 dense_1 (Dense) (None, 512) 524800 dense_2 (Dense) (None, 10) 5130 ================================================================= Total params: 26,215,818 Trainable params: 2,628,106 Non-trainable params: 23,587,712 _________________________________________________________________ Epoch 1/20 196/196 [==============================] - 883s 4s/step - loss: 1.1993 - accuracy: 0.5902 - val_loss: 0.9152 - val_accuracy: 0.6767 Epoch 2/20 196/196 [==================
…
