…
(loss=&#39;binary_crossentropy&#39;,optimizer=&#39;adam&#39;,metrics=[&#39;accuracy&#39;]) model.summary() history = model.fit(train_pad, train_labels, epochs=10, validation_data=(test_pad, test_labels)) plot_acc(history) print(&#39; n&#39;) print(&#39;Prediction:&#39;) print(predict(&#39;Great and amazing movie!&#39;, model)) print(predict(&#39;Horribly bad movie.&#39;, model)) . Model: &#34;sequential&#34; _________________________________________________________________ Layer (type) Output Shape Param # ================================================================= embedding (Embedding) (None, 2493, 128) 11338624 flatten (Flatten) (None, 319104) 0 dense (Dense) (None, 256) 81690880 dropout (Dropout) (None, 256) 0 dense_1 (Dense) (None, 1) 257 ================================================================= Total params: 93,029,761 Trainable params: 93,029,761 Non-trainable params: 0 _________________________________________________________________ Epoch 1/10 782/782 [==============================] - 18s 20ms/step - loss: 0.5837 - accuracy: 0.7156 - val_loss: 0.2866 - val_accuracy: 0.8787 Epoch 2/10 782/782 [=========================
…
,optimizer=tf.keras.optimizers.Adam(learning_rate=0.0001),metrics=[&#39;accuracy&#39;]) model.summary() history = model.fit(train_pad, train_labels, epochs=5, validation_data=(test_pad, test_labels)) plot_acc(history) print(&#39; n&#39;) print(&#39;Prediction:&#39;) print(predict(&#39;Great and amazing movie!&#39;, model)) print(predict(&#39;Horribly bad movie.&#39;, model)) . Model: &#34;sequential_2&#34; _________________________________________________________________ Layer (type) Output Shape Param # ================================================================= embedding_2 (Embedding) (None, 2493, 64) 5669312 conv1d (Conv1D) (None, 2489, 128) 41088 global_average_pooling1d (G (None, 128) 0 lobalAveragePooling1D) dense_4 (Dense) (None, 512) 66048 dropout_2 (Dropout) (None, 512) 0 dense_5 (Dense) (None, 256) 131328 dropout_3 (Dropout) (None, 256) 0 dense_6 (Dense) (None, 1) 257 ================================================================= Total params: 5,908,033 Trainable params: 5,908,033 Non-trainable params: 0 _________________________________________________________________ Epoch 1/5 782/782 [==============================] - 19s 17ms/step - loss: 0.6911 - accuracy: 0.5218 - val_loss: 0.6668 - val_accuracy: 0.5908 Epoch 2/5 782/782 [=============================
…
c. Then fit the model using the training images and labels. . tx_model.compile(optimizer=&#39;SGD&#39;, loss=&#39;sparse_categorical_crossentropy&#39;, metrics = [&#39;accuracy&#39;]) tx_model.summary() history = tx_model.fit(train_img, train_lbl, batch_size=256, epochs = NUM_EPOCHS, validation_data = (test_img, test_lbl), verbose = 1) . Model: &#34;model&#34; _________________________________________________________________ Layer (type) Output Shape Param # ================================================================= input_2 (InputLayer) [(None, 32, 32, 3)] 0 up_sampling2d (UpSampling2D (None, 224, 224, 3) 0 ) resnet50 (Functional) (None, 7, 7, 2048) 23587712 global_average_pooling2d (G (None, 2048) 0 lobalAveragePooling2D) dense (Dense) (None, 1024) 2098176 dropout (Dropout) (None, 1024) 0 dense_1 (Dense) (None, 512) 524800 dense_2 (Dense) (None, 10) 5130 ================================================================= Total params: 26,215,818 Trainable params: 2,628,106 Non-trainable params: 23,587,712 _________________________________________________________________ Epoch 1/20 196/196 [==============================] - 90s 408ms/step - loss: 1.1992 - accuracy: 0.5885 - val_loss: 0.8620 - val_accuracy: 0.7040 Epoch 2/20 196/196 [================
…
 activation = tf.nn.relu), tf.keras.layers.Dense(num_categories, activation = tf.nn.softmax) ]) cnn_model.summary() cnn_model.compile(optimizer = tf.optimizers.Adam(learning_rate = 1e-3), loss = tf.keras.losses.sparse_categorical_crossentropy, metrics = [&#39;accuracy&#39;]) history = cnn_model.fit(train_img, train_lbl, epochs = 20, validation_data = (test_img, test_lbl), verbose = 0) . Model: &#34;sequential&#34; _________________________________________________________________ Layer (type) Output Shape Param # ================================================================= conv2d (Conv2D) (None, 30, 30, 32) 896 max_pooling2d (MaxPooling2D (None, 15, 15, 32) 0 ) conv2d_1 (Conv2D) (None, 13, 13, 32) 9248 max_pooling2d_1 (MaxPooling (None, 6, 6, 32) 0 2D) conv2d_2 (Conv2D) (None, 4, 4, 32) 9248 max_pooling2d_2 (MaxPooling (None, 2, 2, 32) 0 2D) dropout (Dropout) (None, 2, 2, 32) 0 flatten (Flatten) (None, 128) 0 dense (Dense) (None, 128) 16512 dense_1 (Dense) (None, 64) 8256 dense_2 (Dense) (None, 10) 650 ================================================================= Total params: 44,810 Trainable params: 44,810 Non-trainable params: 0 _________________________________________________________________ . 5. Plot results . Plot the response (accuracy and loss) by epochs for the training and validation sets. . acc=history.history[&#39;accuracy&#39;] val_acc=history.history[&#39;val_accuracy&#39;] l
…
